snakeag/model/model.pth (torch, 32576 bytes, 4 tensors)

linear1.weight f4 [512, 11]
000000 e3 5a 4a bf 8f 95 bd 3d 5b 9a bf 3e cb 0c 5e 3e
       -0.7904493 0.09257042 0.3742245 0.21684568
000010 38 3b 1d 3d 43 ee 88 3d 20 33 c6 3d 45 5f 8e be
       0.038386554 0.0668607 0.0967772 -0.2780706
000020 0c d4 ad be 25 b0 d3 be fb 64 ab be b4 fc 45 be
       -0.3395084 -0.41345325 -0.3347548 -0.1933468
000030 f6 a9 b5 bd 4a 72 50 3d 2d 0c 89 be f7 29 65 be
       -0.08870308 0.050890245 -0.26767102 -0.2237929
000040 d3 e8 a8 3e b4 12 7b bd 2a 00 42 bf 6f 4f 14 bf
       0.3299013 -0.061297134 -0.757815 -0.57933706
000050 36 1b 9d be 13 e0 0d 3e 3d db 4a be 47 07 9e be
       -0.30684823 0.13855009 -0.19810195 -0.30864927
000060 ac 67 58 3e ff 83 da bc a4 3b ea 3d 6c ce e1 3d
       0.21133298 -0.026674269 0.11437157 0.110257
000070 e8 59 9b be bc 47 eb be 64 24 28 be 4c e4 28 bd
       -0.3034203 -0.45953166 -0.16420132 -0.041233346
000080 8d 40 70 be 08 ee 79 be 4c 7b 22 3d 8e 1d 58 3d
       -0.23462124 -0.24407208 0.039668366 0.05276256
000090 0b ff ab be a9 fa 2c 3e f4 30 d8 be 3b 6c 83 bd
       -0.3359302 0.16892494 -0.42224848 -0.06417128
0000a0 12 8e 13 bf cf ad 64 be cf 85 b9 be b5 85 8b 3d
       -0.5763866 -0.22331928 -0.362349 0.06812612
0000b0 6b 57 4c bb 92 ee ed 3e ec 83 26 3e 9f 4d bd bd
       -0.0031180035 0.46471077 0.16261262 -0.09243321
0000c0 c7 78 16 be 0c 69 c6 be da bd e6 bd 07 60 81 be
       -0.1469451 -0.3875202 -0.1126668 -0.25268576
0000d0 bb 84 03 be a7 b0 01 be b4 f7 b8 be 9d cf 9e 3f
       -0.12843601 -0.12665044 -0.36126482 1.2407109
0000e0 10 31 8d 3d 01 7d 9b bf ad 84 30 3e 3b 5e 01 be
       0.068941236 -1.2147523 0.17238112 -0.12633602
0000f0 df ff 9d 3f b3 ec e4 3d 4a bb 27 be 00 9e cc ba
       1.2343711 0.11177959 -0.16380039 -0.0015611053
000100 4d f9 68 bf 13 df 99 3e ab c7 22 bf ff 0a 3d 3d
       -0.910054 0.30053005 -0.6358592 0.046153065
000110 2c 85 8b 3e 32 2f 05 3e 58 d7 c5 be 30 c0 86 3e
       0.2725004 0.13006285 -0.38640857 0.26318502
000120 53 f4 4a 3d 89 6c 24 bf 96 ef df be cf 08 54 3c
       0.049549412 -0.6422811 -0.43737477 0.012941553
000130 99 b1 d7 be 58 e8 70 be c9 81 4a be 90 9b ef bd
       -0.42127684 -0.23526132 -0.19776072 -0.11699593
000140 58 1e f2 bd 31 f7 07 3e 9c ea 37 3e 4d 68 07 3e
       -0.11822194 0.1327789 0.1796059 0.13223381
000150 78 fe 23 3d a3 78 0c 3e 25 99 e2 bc 0a 0a 79 be
       0.040037602 0.13717894 -0.027660916 -0.24320236
000160 1f 9f a3 3f f5 2d 81 bf 5b 7b 94 3c 2a 44 3e 3f
       1.2782935 -1.009215 0.018125227 0.7432276
000170 7e 0d 5e 3f f8 fd 6f 3f cb 9c 47 3f bc 55 9c 3d
       0.8673934 0.937469 0.7797362 0.0763354
000180 39 57 c4 bd 4f e6 59 3c 5b d6 bc 3d 3e 3a 50 3e
       -0.09586949 0.013299539 0.092205726 0.20334718
000190 38 48 5b be 7e 74 ae be d4 a6 64 be c2 76 54 be
       -0.21414268 -0.3407325 -0.22329265 -0.20748428
0001a0 c3 d9 6d bc 55 d9 f6 bd 54 ac 88 be e8 00 1b be
       -0.0145172505 -0.120531715 -0.26693976 -0.15137064
0001b0 c0 77 e7 be 18 d0 89 be cf 55 dc bc 9b 60 90 be
       -0.4520855 -0.26916575 -0.026896385 -0.28198704
0001c0 b0 ad 2f 3f 3a d5 d2 3d 9f 9d b2 3f 83 8b 8b 3f
       0.686244 0.10294576 1.3954352 1.0901951
0001d0 60 81 6f 3c ba 61 a7 be 5f 32 2d 3f f8 21 0b bf
       0.014618248 -0.32691747 0.67654985 -0.5434871
0001e0 01 35 9e bc 1c 15 47 3d fe 8a 9a bc 7d 92 a5 3e
       -0.019312384 0.048604116 -0.018865105 0.32338324
0001f0 d8 e5 08 be e0 3f 0f bd c7 f3 00 bd 3e ae ae be
       -0.13368928 -0.034973025 -0.031482484 -0.3411731
000200 ce 22 17 bd 7c d7 20 3d 88 03 9a bd ff 4c 42 bd
       -0.036898427 0.039268002 -0.07520205 -0.04743671
000210 19 ee 64 be cf 72 c2 3e 96 39 b9 3e d8 f5 76 3d
       -0.22356452 0.37978217 0.36176747 0.06029305
000220 22 fa cf 3e 00 3c d9 3e e2 d1 3c 3f 3e 04 57 be
       0.40620524 0.4242859 0.73757756 -0.20997712
000230 aa df 83 be d7 b2 2f be 3e f8 b0 3d 80 b1 b7 3e
       -0.2575658 -0.17158066 0.086410984 0.3587761
000240 dd 08 90 3d a9 a5 25 bf fe 84 0d 3e 66 be 90 3d
       0.070329405 -0.647059 0.13820264 0.070675656
000250 5c 3e fb be 8d a0 c1 be 03 ec d1 be 74 5f fd be
       -0.49071014 -0.37817803 -0.41000375 -0.49486887
000260 55 e5 10 3d 45 60 37 3e a9 c1 66 3f 8d 67 0f bd
       0.035374958 0.17907818 0.9013925 -0.035010863
000270 fe 78 8f bd ee 60 49 bd 93 e5 37 be ae 88 1c bd
       -0.07005499 -0.049164705 -0.1795867 -0.038216285
000280 b5 a7 4f bf a4 db 3e bf 80 77 27 bf e5 5c 72 3e
       -0.81115276 -0.74553895 -0.6541672 0.23668249
000290 91 e0 6e 3f 48 5e 4b 3c 1e bb ef be e0 15 71 3c
       0.9331141 0.012412615 -0.46822447 0.014714688
0002a0 ff 7a d4 bd 51 b7 f2 3b 42 ae a6 3a 22 a0 68 be
       -0.10375022 0.007407107 0.0012716728 -0.22717336
0002b0 8e 3b 94 be dd bb 66 bd 39 b7 a6 bd d0 10 7f bc
       -0.28951687 -0.056331504 -0.08140416 -0.015567973
0002c0 b1 c4 28 bf 62 e1 14 bd 56 f2 f1 3e cc f3 36 be
       -0.6592513 -0.036347754 0.472552 -0.17866439
0002d0 6f 97 19 bf 34 dc ce 3e e6 d2 3d 3e 4e 01 02 bf
       -0.59996694 0.40402377 0.18537483 -0.5078324
0002e0 83 f5 21 bf 24 ba 27 3e c3 dd 1d 3e b2 ec 0c be
       -0.63265246 0.16379601 0.15416627 -0.13762167
0002f0 7d b3 d4 bd 40 14 48 be 73 00 d6 ba d2 88 18 3e
       -0.10385797 -0.19538975 -0.0016327038 0.14895943
000300 10 9a dd 3d 31 ab 45 be b0 22 3f bd 49 d1 20 be
       0.10820401 -0.19303586 -0.04666394 -0.15704836
000310 6a c9 cf bd 97 81 41 be 4d b2 05 bf 4a 1b 9d 3d
       -0.101458386 -0.18897091 -0.5222519 0.076712206
000320 a8 ce ad 3f 2b 6e 05 3f ee fb 7b 3f 84 fe 6c 3f
       1.3578691 0.5212123 0.9843129 0.9257586
000330 d1 34 71 bf 72 3a e3 bf 44 d7 0b 3e 35 b3 2c bf
       -0.94221216 -1.7752211 0.13656336 -0.6746095
000340 49 36 f8 be 98 4a a3 3e 4b 85 ac be f9 e2 49 3b
       -0.48478916 0.31892848 -0.33695444 0.0030805452
000350 1e 22 cd bd ae 1a ca 3d 6a 63 96 bd 1f 3c ca bc
       -0.10016273 0.0986837 -0.073431805 -0.024686871
000360 c9 32 9c be 29 dd c5 be 7a 2b ac be 50 80 39 be
       -0.30507496 -0.38645294 -0.3362692 -0.18115354
000370 05 6c 9f be b9 4e f1 be 76 8a c3 bc b9 c7 ec 3d
       -0.311371 -0.47130373 -0.023869734 0.115615316
000380 56 e0 3f 3e 6b 34 7b 3d 98 ee 50 3e 70 3a 80 be
       0.18737921 0.061329287 0.20403516 -0.25044584
000390 26 02 48 be 26 be 5c be c4 23 91 be ff 2c 0d 3f
       -0.1953207 -0.21556911 -0.283476 0.55146784
0003a0 8a 60 03 bf 70 97 6c 3e e2 cb 19 3e b8 6e 31 3e
       -0.5131918 0.23104644 0.15019181 0.17327392
0003b0 bc e7 09 3e ec ee 55 3e 40 93 59 3f fd 0b 4b 3f
       0.13467306 0.20891923 0.8499031 0.7931517
0003c0 cb 44 ea 3e 1c 33 d2 3e e0 e5 fc bc 74 f0 c5 bd
       0.4575561 0.41054618 -0.030871332 -0.096650034
0003d0 90 03 be bd 27 b1 20 be 4f 2c 33 be 02 72 ee bd
       -0.09278023 -0.15692578 -0.17497371 -0.11642839
0003e0 a8 60 02 3e e7 18 5b be 2c 7b 80 bd 70 f1 b3 3c
       0.12732184 -0.21396218 -0.06273493 0.021965712
0003f0 7c ef b8 3d d3 e9 77 bf 4d 11 fa 3d 4b 05 11 3f
       0.09030053 -0.9684116 0.12210331 0.566487

linear1.bias f4 [512]
000000 fe db d1 be 50 d5 11 bf 37 f8 94 be 0c 16 b8 be
       -0.40988153 -0.56966114 -0.29095623 -0.3595432
000010 cf bf 06 bf ae 1e 05 bf 99 86 47 bf 41 f9 a7 be
       -0.52636427 -0.5199994 -0.77939755 -0.32807353
000020 df 61 80 bf db 37 51 bd 80 cb 5f bf ae 9e 07 bf
       -1.0029868 -0.05107866 -0.8741989 -0.529765
000030 80 e2 c9 bf e2 d7 58 bf 47 51 6b be 70 b0 d6 bd
       -1.5772247 -0.8470441 -0.22980224 -0.104828715
000040 28 2b 93 bf d7 c5 de bd b8 a3 42 bf 33 74 90 be
       -1.1497545 -0.10877579 -0.76031065 -0.28213653
000050 59 8a 17 bc 3c 4c c2 bf 59 3b 7f be 61 23 50 bf
       -0.009249293 -1.5179515 -0.24924983 -0.81303984
000060 a6 79 dd 3d 3c 03 23 3c ce 97 38 be 92 65 83 bf
       0.10814218 0.009949502 -0.18026659 -1.0265372
000070 bd 5e 83 be d4 0f b9 bf ee cf 18 c0 ce 54 25 bf
       -0.25658217 -1.4457955 -2.387691 -0.64582527
000080 19 07 2d bf 3c a1 39 be 67 c9 fc be 8e 6e 01 be
       -0.67588955 -0.18127912 -0.49372408 -0.1263983
000090 9b e0 57 bd bd ce 49 bf 40 6b bf be 8c 70 76 be
       -0.052704435 -0.7883108 -0.37386513 -0.2406637
0000a0 a7 5a 24 bf 73 45 bb bf 2d 36 e0 be 85 58 77 bf
       -0.64200824 -1.4630569 -0.43791333 -0.96619445
0000b0 7e d9 1e bf ab e2 86 bf 1c b4 4e be bf ca 62 be
       -0.62050617 -1.0537924 -0.20185894 -0.22147654
0000c0 73 21 34 be 76 db 99 be 4b d3 06 40 a7 d4 5b 40
       -0.17590885 -0.30050248 2.1066463 3.4348543
0000d0 b6 b2 ef bd b5 23 0a bf 83 4a 8a bf 9f ba a5 bf
       -0.11704008 -0.53960735 -1.0803989 -1.2947577
0000e0 a8 37 92 bf 30 5d ec be 23 05 f8 bf 9a b7 a2 bf
       -1.1423235 -0.46164846 -1.9376568 -1.2712281
0000f0 39 d7 59 bf ec 7c ca bf 3d 9d bd 3e 92 f9 cd be
       -0.8509403 -1.5819373 0.37034026 -0.4022947
000100 9b 3c 4d bf c0 1f 27 bf 17 b0 c9 bf 4e 9e 4a be
       -0.801706 -0.6528282 -1.5756863 -0.19786951
000110 64 82 93 be 5a bc 25 bf 7d f5 1e be 55 94 9b bf
       -0.28810418 -0.64740527 -0.15523334 -1.2154642
000120 1c 7e b1 be 46 07 23 be 7d 90 e7 be 59 b2 de bf
       -0.34666526 -0.15920743 -0.45227423 -1.7398177
000130 fd 04 e8 be b0 9e 82 bf 6a d2 55 bf 27 18 99 be
       -0.45316306 -1.0204678 -0.8352419 -0.2990124
000140 17 92 ae bf b2 99 90 bf ce 2b 2e bf 3b 0b d4 be
       -1.3638333 -1.1296904 -0.6803559 -0.41414818
000150 b7 a2 06 c0 a0 aa 81 bf 54 7f c8 be b8 56 a0 bf
       -2.1036813 -1.0130196 -0.39159644 -1.2526464
000160 70 34 94 bf 48 b8 50 bf e0 fb 0b 40 9b 5e 87 be
       -1.1578503 -0.8153119 2.1872482 -0.26439366
000170 52 e3 97 be 89 3e 62 be a2 d2 47 be aa c0 b4 bd
       -0.2966562 -0.22094168 -0.19513944 -0.0882581
000180 f9 89 2c bf 64 9d fd be 04 9b 84 be db 0b 98 bf
       -0.6739803 -0.49534142 -0.25899518 -1.1878618
000190 d5 b3 83 be ba a8 18 bf 09 12 b2 3c ec 74 d5 bf
       -0.25723138 -0.59632456 0.021737115 -1.6676307
0001a0 11 50 06 bf 8f c9 96 be 00 93 eb be 8d 77 ea be
       -0.5246592 -0.29450652 -0.4601059 -0.45794335
0001b0 49 c3 d7 be bc 5c 8a bf 05 67 76 bf b7 87 a4 bf
       -0.42141178 -1.080955 -0.96250945 -1.2853917
0001c0 09 50 8c bf 7d 44 80 be 8f 74 19 bf d8 95 ee 3a
       -1.0961925 -0.25052252 -0.5994348 0.0018202616
0001d0 3e 9d a4 bf d0 fa f3 3d 62 99 d6 bf 33 12 9b bf
       -1.2860487 0.11913073 -1.6765559 -1.2114929
0001e0 23 3c 4a bf fe c5 8d be a6 6b e0 bf 74 29 81 be
       -0.7899801 -0.2769012 -1.7532852 -0.2522694
0001f0 b5 d9 98 bf a9 d8 e6 be b9 5b 4d bf 3a a4 29 bd
       -1.1941439 -0.45087174 -0.8021808 -0.041416384
000200 11 5a dd be c6 65 19 bf c6 50 cf be 63 1d b5 bf
       -0.43232778 -0.5992092 -0.40491313 -1.4149593
000210 01 eb b5 3c 32 ca 5a bf e4 25 83 be 8b ac 20 bf
       0.022206785 -0.85464776 -0.25614846 -0.6276328
000220 9f 32 22 be 3a 5a 15 bf 88 d5 a2 bf f4 42 1b bf
       -0.15839623 -0.583408 -1.2721415 -0.6064904
000230 a2 b4 7a bf 0e 26 0f be 72 dc 0b bf 53 b9 ed bd
       -0.97931874 -0.1397936 -0.5463325 -0.116076134
000240 95 6a 10 bf aa 62 e4 bf 54 73 19 bf f7 99 2b 40
       -0.5641263 -1.784261 -0.599416 2.6812723
000250 d6 75 cf be a7 9d cc bf 22 a4 e6 be 81 17 47 bf
       -0.4051959 -1.5985612 -0.45047098 -0.7777024
000260 c5 53 69 3d c6 ee 88 3e a5 78 be be 2a a4 05 bf
       0.056964654 0.2674467 -0.3720142 -0.5220362
000270 a8 8d 81 be 68 89 c2 3b 73 8b 97 bd 02 bf 64 be
       -0.25303388 0.0059367903 -0.07399645 -0.22338489
000280 14 97 35 bf bb 3c ea be 45 8d e7 be e6 dc 0b bf
       -0.7093365 -0.4574946 -0.45224968 -0.5463394
000290 7f ff ab be a4 d8 80 be cc 7b 9e bf 91 e8 0d bf
       -0.33593366 -0.25165284 -1.238153 -0.55432993
0002a0 3a 28 86 bf 52 8e 51 bf 60 21 b2 bd c5 bc 08 c0
       -1.0481026 -0.8185779 -0.08697772 -2.1365216
0002b0 9e fb c3 bc 91 7a ff 3d 1d d7 98 be df d8 94 bf
       -0.023923691 0.124745496 -0.29851618 -1.1628684
0002c0 88 be e8 be 09 ac 8c bf ce b7 f5 be 7a 1c 7e 40
       -0.45457864 -1.0990001 -0.47991794 3.970488
0002d0 c5 4f 58 bf 4b 42 23 be 36 12 1b 3f 53 a4 db bf
       -0.8449672 -0.15943258 0.6057466 -1.7159523
0002e0 15 24 8c be 95 05 05 bf 65 1a 94 be 0b f7 4a be
       -0.27371278 -0.5196164 -0.28926387 -0.19820802
0002f0 cc b0 29 bf 6f ee 21 40 f1 b5 13 bf 97 d7 67 bf
       -0.66285396 2.5301778 -0.57699496 -0.9056334
000300 bf c3 f3 be 81 1b 79 bf 4a ac 35 be b5 f6 d1 be
       -0.4761028 -0.9730759 -0.17741504 -0.41008535
000310 f3 45 bc be 98 63 ee bb f9 7d ac bf 8e fa e7 bf
       -0.36772117 -0.007275056 -1.3475944 -1.8123338
000320 86 d4 3b bf 3b c5 85 bd a2 0e d5 be 36 8b fa be
       -0.7337116 -0.06531759 -0.41612726 -0.48934335
000330 b8 79 26 bf ed 4f da be 92 73 b6 bf 81 d8 44 bf
       -0.6502948 -0.42639104 -1.4254019 -0.7689286
000340 16 cf 68 be 8f b8 5b bf 6e b1 6a be a5 74 06 3d
       -0.22735247 -0.8582849 -0.22919247 0.032826085
000350 eb ca 67 bd 5f a4 03 c0 69 3d 08 bf ef 2b 8d bb
       -0.056590002 -2.0569074 -0.53218704 -0.004308216
000360 50 93 e7 be 36 83 25 be 78 e2 cd be da 8a 27 bf
       -0.45229578 -0.16163334 -0.40211844 -0.65446246
000370 07 e7 18 bf 09 99 89 bf 11 cb eb be 02 8d 96 bf
       -0.5972752 -1.0749828 -0.46053365 -1.1761782
000380 ee 0f 5d 3e 23 b5 90 bf d0 df 8f be f6 7e ec bf
       0.21588108 -1.1305279 -0.28100443 -1.8476245
000390 c3 72 db be 90 df b5 bf c2 de 3a be 11 ed b4 bf
       -0.42860994 -1.4208851 -0.18249038 -1.4134847
0003a0 d3 4c 39 bf 5b a3 42 bf bd e7 ae be 8c 94 a1 be
       -0.7238285 -0.7603051 -0.34161177 -0.31558645
0003b0 e1 f7 27 bf e0 82 71 be 8c 6d 3f bc 6b 78 12 bf
       -0.6561261 -0.23585081 -0.011683833 -0.57214993
0003c0 cc fb 41 bf 1d 1a 87 be 0a b5 9e bd fc 72 0a bf
       -0.75774837 -0.2638711 -0.07749374 -0.540817
0003d0 97 37 18 bf 2f 6b 2d bf 8c 86 84 bf cf e8 c0 be
       -0.59459823 -0.67741674 -1.035356 -0.3767762
0003e0 5f 27 ae bd df f6 0e c0 1c ac 11 bf a8 53 bb be
       -0.08503603 -2.2338178 -0.56903243 -0.36587262
0003f0 1f 1f f4 be de 6a 8b bd 5e 28 7b bf 2e 56 b1 3e
       -0.47679994 -0.06807493 -0.9810847 0.34636062

linear2.weight f4 [3, 512]
000000 68 9b 93 3b 29 d4 1c bf 1b 71 30 3c 32 0e 5f 3c
       0.00450461 -0.6126123 0.010769154 0.013614224
000010 9a 8f e3 bb 30 2c bc bf 74 58 61 3d 2a 90 93 3c
       -0.006944609 -1.4700985 0.055015996 0.018013079
000020 54 6c e1 bf 5e 8c 1d bd 24 ec 88 3e 0f c2 5d 3c
       -1.7611184 -0.038463943 0.2674266 0.013535037
000030 67 d3 58 3d 4b 97 13 be 96 cd 1b c0 92 96 65 bc
       0.052935984 -0.14413182 -2.434423 -0.01401295
000040 24 b0 0b bc 47 88 ca bc c9 16 27 3f 23 f1 10 bf
       -0.008525882 -0.024723185 0.6526914 -0.56617945
000050 7a da ce 3b 3f 78 e6 bd c6 27 cb 3c be 76 88 3c
       0.0063126655 -0.11253404 0.024799239 0.016658183
000060 bb aa 03 3b 80 f1 60 b8 c1 47 26 be 35 37 7a 3f
       0.0020090777 -5.3630676e-05 -0.1623831 0.9774049
000070 b0 0d d0 bb 96 ae 20 bc ca d8 28 3e fe b7 9a be
       -0.006349288 -0.0098072495 0.16488948 -0.302185
000080 56 48 94 3d b4 21 c7 be 22 5f 2c 3d c8 bc 9f bc
       0.072403595 -0.388929 0.042082913 -0.019499198
000090 e7 84 97 3b 0a 0b 92 3d 77 76 f2 3c f3 cf 5a bc
       0.0046239975 0.07131012 0.029597504 -0.013355243
0000a0 7e 39 c5 3b b8 46 ff 3e be 01 ab be 1b 65 1a 3b
       0.0060188165 0.49858642 -0.33399767 0.0023558799
0000b0 12 43 3e 3e 7e 98 8d 3e a8 25 27 be 62 9a 9a 39
       0.18580273 0.27655405 -0.16322958 0.00029488193
0000c0 a6 48 e4 bf f4 56 a5 b9 fd 63 5d 3e 26 ee ca 3e
       -1.783467 -0.00031536038 0.21620174 0.39634818
0000d0 f9 4b 0b 3a 38 fd 75 bd 65 f9 76 3c d7 ae b5 3d
       0.000531375 -0.06005594 0.015074109 0.08871239
0000e0 33 ba e8 bd ca f1 41 bc d2 b0 6b 3d 28 22 2b 3d
       -0.1136364 -0.011837432 0.057541676 0.04178062
0000f0 2d cd 4b 3c 2e 51 32 3f e2 ca 37 3b c2 c0 45 bc
       0.012439054 0.6965512 0.0028044512 -0.012069883
000100 b9 26 5c bb 60 cc 2a 3c 4d 85 5b bc 69 df 9e 3d
       -0.0033592416 0.010424703 -0.013398481 0.07757456
000110 2d 2f eb 3b d6 e6 96 bb dc 94 84 3a cc 85 df 3c
       0.0071772547 -0.0046051545 0.0010115164 0.027285479
000120 8b b7 fa bb 17 ba 1a bf ec f3 c4 bb b4 77 8c 3f
       -0.0076512746 -0.604402 -0.006010523 1.097403
000130 5d 0a ca bb 74 5f 7e bf 06 19 8d 3c e5 99 05 3c
       -0.006165786 -0.993644 0.017223846 0.008154367
000140 18 0d 28 bd b2 16 e1 3e bb a8 72 bd 46 d5 37 bc
       -0.041028112 0.43962628 -0.059242945 -0.011220282
000150 31 c2 6b 3e b9 e3 6b 3d 0d 3d 2c 3c 84 63 38 3f
       0.23023297 0.05759022 0.0105126025 0.7202685
000160 64 13 d7 3c c8 e5 5c 3d 16 6f 50 3e 97 5b a7 3d
       0.026254363 0.053930074 0.20354876 0.08171766
000170 a8 e3 6d bc ea 9f af bf 63 69 0b 3d 80 ac b8 3b
       -0.0145196095 -1.3720677 0.03403605 0.005635798
000180 5a 86 ed 3c d1 1c 2e bc 66 fb 9e bf 62 6c ed 3c
       0.028994728 -0.010626988 -1.2420471 0.028982345
000190 70 93 09 3f 12 a9 d3 3e 99 bf 72 bd 35 3a 0e 3c
       0.53740597 0.41339928 -0.059264753 0.00868087
0001a0 79 17 7a 3a 9f 4c d0 bf a2 c6 0c 3d 09 d2 86 bf
       0.0009540241 -1.6273383 0.03436912 -1.0532848
0001b0 77 60 8c 3b 20 55 57 3b 8f 7d 24 bf 55 ac 80 3d
       0.0042839604 0.0032857135 -0.6425409 0.0628287
0001c0 7c 4c 07 3e c0 92 61 bf 13 63 99 bd b6 cb ef 3a
       0.1321277 -0.8811455 -0.074896 0.0018294964
0001d0 31 92 67 3c 51 57 1f bc 32 71 22 3f c8 7a ca 3e
       0.014133976 -0.009725408 0.6345397 0.395468
0001e0 10 42 6e bc c6 36 49 bc 02 41 c3 3e 48 2a e8 bc
       -0.014542118 -0.012281125 0.38135535 -0.028340474
0001f0 b1 0f 56 bf 21 ab 6e bc 42 6c 0b bb 17 a2 57 3b
       -0.83617693 -0.0145671675 -0.0021274243 0.003290301
000200 e6 a3 63 b9 67 94 cd 3c 40 43 e4 ba d9 ce f8 bf
       -0.00021709464 0.025095178 -0.0017415062 -1.9438125
000210 20 d9 81 bf 05 9a f4 3d 5c 4d 57 3e a7 4f 52 bf
       -1.0144386 0.119434394 0.21025604 -0.8215279
000220 6e 1d 9b 3e f6 29 44 bd 6e 68 3e 3d 94 f6 80 3d
       0.3029589 -0.04789158 0.04648631 0.06297031
000230 b4 db 2d 3e 40 9d 30 bc f8 06 68 be 64 fe b4 ba
       0.16978341 -0.010779679 -0.22658908 -0.0013808724
000240 fe cc 01 bd ec 85 5f 3d 4a 68 62 bc 3d 75 b9 3e
       -0.031689636 0.054571077 -0.01381881 0.36222258
000250 96 9b a7 bb 66 fb 59 3d 29 0f 0b 3c 62 a3 90 3e
       -0.005114983 0.053218268 0.008487501 0.2824965
000260 5a e0 0f 3b 29 54 8c bb a1 ef e2 bc 4a fe 03 bd
       0.0021953792 -0.0042824936 -0.027702155 -0.03222493
000270 6f 79 c0 3e 62 58 f7 bf 24 c5 46 bd 95 e6 67 bc
       0.37592646 -1.9323847 -0.04852785 -0.014154096
000280 59 62 e7 bf 0b cc 5d 3c 58 06 97 bc 53 b8 42 bc
       -1.8076888 0.013537417 -0.018435642 -0.011884767
000290 f0 37 c2 3b 38 d8 67 3b bc 08 63 3e 68 20 7f bd
       0.0059270784 0.003537668 0.221713 -0.062286764
0002a0 64 bc e4 3d ea e1 71 bc 56 19 f3 3c 98 81 d5 3e
       0.11168745 -0.014763335 0.029675167 0.41700435
0002b0 66 28 3b be b6 de 84 bd ba bb 1e bd 6b a2 19 3e
       -0.1827713 -0.06487791 -0.03875325 0.15003364
0002c0 3e 95 0c be d7 32 4a 3e df 4e d6 bc 96 86 d3 3e
       -0.13728806 0.19745956 -0.026160656 0.41313618
0002d0 cd 2a 25 3c b2 f3 09 3d bf d8 8f bc f3 f8 5a 3e
       0.010081005 0.03367967 -0.017559407 0.21384029
0002e0 ea f7 b6 3c f6 5e 0b bf 13 0e a2 3c 6d 36 4a 3b
       0.022335012 -0.54441774 0.019782102 0.0030855194
0002f0 dc db c9 3c ee 8a a7 3e 11 43 27 be e6 71 2a 3f
       0.02464097 0.32723182 -0.16334178 0.66580045
000300 01 d4 00 3e 17 f2 1f bc 88 df 90 bb cc 43 04 bf
       0.12580873 -0.009762309 -0.0044211783 -0.5166595
000310 a0 78 7a bf ab 04 4d 3d a2 21 9f be 7f 61 8d 3e
       -0.9784031 0.05005328 -0.31080347 0.27613446
000320 af 84 10 3d c2 cb 99 3b 61 20 41 3b e1 cb 21 3d
       0.035282787 0.0046934793 0.0029468762 0.039501075
000330 31 f7 01 bc 8b 7f df 3c 8b 4b 99 bc f3 8b db ba
       -0.00793247 0.027282497 -0.01871278 -0.0016750082
000340 1c 0b ba bc 5f 02 00 bf 21 76 94 bc 6d e3 8f 3a
       -0.022710375 -0.5000362 -0.018122735 0.0010977812
000350 8b e6 93 3c 71 43 7e 3e 12 85 01 c0 5b d7 c2 bb
       0.018054267 0.24830414 -2.023747 -0.0059460825
000360 2c 9c e0 3c ec 94 d2 bc 0a e1 1f bd d8 8b 04 3d
       0.027418219 -0.025705777 -0.039032973 0.032359928
000370 b9 4f 36 bc 6e 12 10 bd 2e 02 53 3a 31 0f 15 3d
       -0.011127406 -0.035173826 0.0008049336 0.03639144
000380 56 24 e8 bb c5 a5 e5 be 6c 6c e5 bd b2 98 b3 3e
       -0.0070844097 -0.44853035 -0.112023205 0.35077435
000390 2f 99 55 3c e0 02 e4 3c de bd 84 3c d4 a5 5e 3e
       0.01303701 0.027833402 0.016203817 0.21742946
0003a0 3e d3 a7 3d f3 b1 47 3d 87 16 44 3b 69 9d e1 be
       0.08194588 0.04875369 0.0029920654 -0.44065407
0003b0 4a 8a ce 3c dc 16 fe 3b 31 f5 90 bd 7e eb 04 3d
       0.025212426 0.00775419 -0.070780165 0.032451145
0003c0 4d ec a8 3e 01 9c 9d 3d 07 94 e8 3c 00 48 be 3b
       0.32992783 0.07695771 0.028390897 0.005806923
0003d0 e1 2a f1 bc 38 27 91 bd 80 26 3d 3d 2b 44 80 3c
       -0.029439392 -0.070875585 0.046179295 0.015657505
0003e0 80 2c 62 3c 34 ad 89 3e 6f cb d4 bb 67 6d 41 bd
       0.013804555 0.26889956 -0.0064939777 -0.047223475
0003f0 48 9b 88 3c 4d 37 83 3b c5 97 af bc 89 2e 22 3b
       0.016675606 0.004004395 -0.021434674 0.0024746975

linear2.bias f4 [3]
000000 ba 1f 0d be ff da ec 3e 95 67 13 3f
       -0.13781634 0.4626083 0.5757993
